MnistModel/mnist_model.pth (torch, 903280 bytes, 8 tensors)

conv1.weight f4 [32, 1, 3, 3]
000000 6a 9f 77 be 26 45 31 3e 18 cd ae bc 7c b4 50 3e
       -0.24181905 0.17311534 -0.02133803 0.2038135
000010 75 4f a3 3c bd 3c 40 3e f4 e6 be be d7 aa a2 bd
       0.019935349 0.1877317 -0.37285578 -0.07942741
000020 c4 a1 6d 3e 16 9b af 3d 9b 30 0c be 8c 08 35 3e
       0.2320624 0.08574502 -0.13690417 0.17679042
000030 28 76 55 be ce f5 28 be d6 be 79 be 47 d1 89 be
       -0.20845854 -0.16500017 -0.24389204 -0.26917478
000040 40 ec 8f bb d0 b2 b3 bd d0 e2 ad bd e6 bd d9 bc
       -0.004392177 -0.0877434 -0.08490527 -0.026579808
000050 90 f3 ed bd 4a a6 ad be ba 47 c9 3d 1c ca ec bd
       -0.116187215 -0.3391593 0.09828134 -0.11561987
000060 10 dd d5 bd d7 66 86 be 3b 22 2b 3e f3 85 41 3e
       -0.10442555 -0.26250336 0.16712277 0.18898754
000070 d4 41 8a bd 97 3e e5 3d d6 c1 04 3e 13 71 02 bb
       -0.06750837 0.11193579 0.12964568 -0.0019903823
000080 42 ef 55 3e a7 01 00 3e 44 d2 81 3e bb e0 18 3e
       0.20892051 0.1250063 0.25355732 0.14929478
000090 91 5c bb 3d 81 8f 88 3d 93 45 65 3e 94 bc 1e 3e
       0.09148515 0.06667996 0.22389822 0.15501624
0000a0 e2 94 c1 3e fd 15 75 3e 7a f7 19 bd da 4f c1 be
       0.378089 0.23934169 -0.037589528 -0.37756234
0000b0 74 a7 18 bf 94 dc 1e 3e 55 1a 9e be 0c 0e d3 be
       -0.59630513 0.15513831 -0.30879465 -0.41221654
0000c0 f0 e8 77 3e b6 3f ff 3e 22 3c 9c be ce 48 32 be
       0.24209952 0.49853295 -0.30514628 -0.17410585
0000d0 00 f1 57 3e 53 b0 8f 3e 1f 96 bf 3e 37 98 4a be
       0.21088028 0.28064212 0.3741922 -0.19784628
0000e0 0e 7a 83 3b 39 0a fc be 98 57 e0 be 7e 73 49 be
       0.004012353 -0.4922655 -0.4381683 -0.19672963
0000f0 ac 76 71 3e 38 32 6b 3e aa 23 f1 3e 55 96 b1 bc
       0.23580426 0.22968376 0.47097522 -0.02167813
000100 60 41 20 3e b1 cf 2d be 08 69 35 bf 1f 30 1e be
       0.15649939 -0.16973759 -0.7086339 -0.15448044
000110 d7 71 f3 3e 8b f7 76 be fd 41 30 3e e1 cc 03 3f
       0.4754779 -0.24117868 0.17212673 0.51484495
000120 12 fd e5 3e ee 0e eb 3e 8b 5c a3 3c 8a 06 e6 bc
       0.4491964 0.45909828 0.019941589 -0.02807929
000130 c5 e4 aa 3d 5f 07 29 be 6a 6d 00 bf 20 2d 3e bf
       0.083444156 -0.16506718 -0.5016695 -0.74287605
000140 d3 f3 83 3c c7 fc 09 3f a7 22 40 3e 14 4d f2 bd
       0.016107475 0.5390133 0.18763219 -0.11831108
000150 09 7d e1 3e 81 41 ed bc 64 e6 22 bf 95 3d 8e 3e
       0.44040707 -0.028961899 -0.636328 0.27781358
000160 8e a5 0a bf 1d e2 93 be 6a 1b 05 3e 01 4e c5 be
       -0.54158866 -0.28883448 0.12998739 -0.38536075
000170 87 17 e7 3c 29 ea e0 be 41 e6 00 bd ed 19 8c 3e
       0.02820946 -0.4392865 -0.031469587 0.2736353
000180 7f 44 0c 3e b8 04 d6 3e ff 97 f4 3d ca 70 81 be
       0.13698004 0.41800475 0.119430535 -0.25281364
000190 f8 1a 0d bf d5 0f f4 be 1b d1 c2 be 34 14 3b be
       -0.55119276 -0.4766833 -0.3805016 -0.18269426
0001a0 b4 ad 53 be 16 9e 49 be f2 03 39 3e 82 56 a2 3d
       -0.20671731 -0.19689211 0.18067911 0.07926656
0001b0 d4 82 d2 be d3 f9 aa bd 12 4d 31 be c6 14 88 be
       -0.4111544 -0.083484314 -0.17314556 -0.2657835
0001c0 85 90 11 be 2a 39 d0 3d 55 55 de 3e 8d b3 b8 3e
       -0.14215286 0.10167153 0.43424478 0.36074486
0001d0 5c 6b 39 3e 40 31 04 3d 5e bc 32 be 90 0e fb bc
       0.1810736 0.03227353 -0.17454669 -0.030646592
0001e0 54 3f 9f be f0 83 be 3c fa b3 99 be 2b e7 69 be
       -0.31103003 0.023256272 -0.30020124 -0.2284209
0001f0 38 97 9b be f6 d7 99 be ab 57 5c 3e 3a ae 62 bd
       -0.30388808 -0.30047578 0.21517818 -0.055341937
000200 d4 8e 36 3e c4 2e 87 3e 31 9e 56 be 32 76 4a 3e
       0.17827922 0.26402867 -0.20958783 0.1977165
000210 29 ea 69 be 49 e6 e4 bd 27 74 8c be ef 60 f2 3d
       -0.22843231 -0.11176736 -0.27432367 0.11834895
000220 09 2f a0 be 6f e9 65 be 8a b8 ce 3d c6 ad 87 bd
       -0.31285885 -0.22452329 0.10093792 -0.066249415
000230 bd cc 7d 3e cd c4 40 3e 79 1c d7 bd bc 14 86 3d
       0.24785133 0.18825074 -0.105034776 0.065469235
000240 ba 29 4a be d2 6c 50 be e2 b2 d2 3d 86 45 c6 be
       -0.1974248 -0.20354012 0.102880254 -0.38724917
000250 4a f0 f3 3e 36 56 6d 3d 51 33 d9 3e 46 59 cc 3e
       0.47644264 0.057943545 0.42421964 0.3991186
000260 9e db b0 be 5e 22 ce 3d 4a 2e c7 3e 35 23 89 be
       -0.34542555 0.10065149 0.38902503 -0.26784673
000270 56 96 5b 3e 1f d3 80 3e b2 89 d9 be 34 bf c7 3d
       0.21444067 0.25161073 -0.42487866 0.09753266
000280 5b 97 50 3e dd a7 03 3d 00 3e bf 3e fa f9 a4 3d
       0.20370238 0.03214251 0.3735199 0.08055492
000290 16 b1 c7 3e 89 c0 39 be 9d 80 7c bb 85 0a 29 3e
       0.39002293 -0.18139853 -0.0038528808 0.16507919
0002a0 0f 23 05 bf 47 53 53 be ea 68 dc be 29 22 b5 bc
       -0.5200662 -0.20637237 -0.43048793 -0.022111015
0002b0 91 cd e2 be 92 06 f8 bd d6 03 ae bc c1 e6 27 bf
       -0.4429746 -0.12110628 -0.021242063 -0.6558648
0002c0 22 d9 18 bd 3c c9 29 bf 2a 31 9d be 0d 84 0e 3f
       -0.03731645 -0.66322684 -0.30701572 0.55670244
0002d0 17 18 cd 3d 7d 08 dd be a7 90 04 bf 38 12 a1 3e
       0.100143604 -0.4317054 -0.5178322 0.31459212
0002e0 00 d3 aa 3e 0c 1c a8 3e 38 86 05 be e9 86 1e 3e
       0.33364105 0.32833898 -0.13039482 0.15481152
0002f0 50 b0 70 3e 64 46 64 3e c6 8b 71 3e ef 2c 35 3e
       0.23504758 0.22292477 0.23588476 0.17692922
000300 5a db ac 3e c7 41 46 be 01 7e a2 3e 38 8e a7 be
       0.33761102 -0.1936103 0.31736758 -0.32725692
000310 8b ae 86 be 71 b2 0c bf f1 30 95 3e df 1a 2b be
       -0.2630504 -0.5495978 0.29138902 -0.1670947
000320 2e a7 77 3d 37 0c 78 3e 87 ab 46 bd 46 52 f5 be
       0.06046217 0.2422341 -0.048503425 -0.47914332
000330 83 54 c9 ba 88 fa b3 3e e9 68 1e 3e c2 93 ef 3e
       -0.001536027 0.35152078 0.15469708 0.46792418
000340 71 a3 c3 3d 8f 67 fe be 52 fd 5b 3e 8a 66 a8 be
       0.09552658 -0.49688384 0.21483353 -0.3289073
000350 17 4d 30 bf 38 33 ee 3e a5 26 69 3d eb d9 88 be
       -0.6886763 0.46523452 0.05692162 -0.26728758
000360 2f 87 a6 bc 15 2a 9d be 32 5c 60 be 37 70 58 3e
       -0.020328132 -0.3069617 -0.2191017 0.21136557
000370 a6 7c d5 be 51 7b f1 be 5d ab 0e 3f b7 23 00 3f
       -0.41696662 -0.47164395 0.5573023 0.50054497
000380 7a 2d d2 3d 06 70 c6 bc 5a 08 c1 3e 5e ef 9e be
       0.1026258 -0.024223339 0.37701684 -0.31041998
000390 7f 2f 24 3e 7b ef c7 3e 17 12 76 3e a5 e8 fd be
       0.16033743 0.39049897 0.24030338 -0.49591556
0003a0 09 a6 1f 3e 04 9b b3 3d 96 2e 99 be c3 e9 cf 3e
       0.15590681 0.08769801 -0.29918355 0.40608034
0003b0 aa e8 c9 3d c5 5f 40 bf 29 23 49 bf 6a 39 8b be
       0.0985883 -0.7514613 -0.78569275 -0.2719224
0003c0 80 5a d3 bb 10 51 6b be ef 5c d1 be 36 22 0a bf
       -0.0064499974 -0.22980142 -0.40891215 -0.5395845
0003d0 32 9f 93 be ee 0b a9 3e 7e f4 c9 3c 98 22 f0 3e
       -0.28832394 0.33016914 0.024652716 0.46901393
0003e0 34 14 c7 3e 8e 40 f1 3e dc 63 d4 3d 36 e7 64 be
       0.388826 0.47119564 0.10370609 -0.22353825
0003f0 f7 81 f9 be ab 7b 5a bf 30 12 bf be c2 c6 c7 3d
       -0.48731968 -0.8534495 -0.37318563 0.09754707

conv1.bias f4 [32]
000000 a7 99 dd bd 38 a6 84 be 77 4b 7d be 5e c5 b0 be
       -0.108203225 -0.25908065 -0.24735819 -0.3452558
000010 e9 39 98 bd 9f a3 9a bd e4 db 98 bc f9 ce ba bc
       -0.074329205 -0.075507395 -0.01865954 -0.02280377
000020 63 b2 64 3e df 4f a7 3d 4c 41 d0 bd c5 d2 c9 3e
       0.22333674 0.08169531 -0.101687044 0.39418617
000030 e9 7f 07 38 16 30 eb bd b7 e4 28 bd 98 e7 81 bd
       3.2305634e-05 -0.11483781 -0.041233744 -0.06343001
000040 30 ef 52 bd fb 45 1f be 8b 8d d4 3d be 8c 9f 3e
       -0.05149764 -0.15554039 0.1037856 0.31162065
000050 86 73 17 be ef c3 82 bb bd 1a 42 be 39 50 25 3e
       -0.14790162 -0.0039906423 -0.18955512 0.16143884
000060 8e 06 8d bb ea 61 54 be 9a 30 cd 3e d8 99 af be
       -0.00430376 -0.20740476 0.40076143 -0.3429706
000070 38 40 68 3e 5e 49 25 3c 44 6d ae bd f9 8e e3 bd
       0.22680748 0.010088293 -0.085169345 -0.11111254

conv2.weight f4 [64, 32, 3, 3]
000000 4b 3e a3 bd 87 ad a8 bd 10 da ac 3c ad db 6b 3d
       -0.07970866 -0.08236223 0.021100074 0.057582546
000010 4a b0 7b 3d d8 07 b1 bd 47 6a a3 3b e4 d3 b3 3c
       0.06144742 -0.08644074 0.0049870345 0.021951623
000020 56 f5 80 3c 38 1e d1 3b 7c 4e 34 3d 17 ed 7e bc
       0.015741985 0.006381776 0.04402016 -0.015559456
000030 40 8b 61 bc 7c f1 0b bd 9a a2 21 3d e0 90 0f 3c
       -0.01376611 -0.034165844 0.03946171 0.008762568
000040 cf 58 e6 3c 62 ea 14 3d 2c 29 93 bd d0 c6 b2 3c
       0.02811852 0.036356337 -0.07185587 0.021823317
000050 7b c8 87 3d 38 e7 1d 3d 25 d3 80 3d 4b bc 80 3d
       0.066300355 0.038550586 0.062902726 0.06285914
000060 84 13 f6 3c 53 c2 7d 3d ab fc 18 3c 05 29 aa bd
       0.030038603 0.0619529 0.0093375845 -0.08308605
000070 e4 a3 21 be c4 8f 21 be 6b 65 25 bc 82 44 44 3d
       -0.15785176 -0.15777498 -0.010094981 0.047916897
000080 ab 05 4e bd e6 62 47 be 02 d5 04 bd 46 63 8d bc
       -0.050298374 -0.1947132 -0.032429703 -0.017259251
000090 32 df 03 bb b5 cc 93 3c 9d 6a 08 3c 38 cf 0e bc
       -0.0020122048 0.018041948 0.0083262 -0.008716397
0000a0 3a f0 0d bd d4 12 87 bd 83 3a 54 bc 91 a6 9a 3d
       -0.034652926 -0.06595388 -0.012953403 0.07551301
0000b0 8c 06 93 bc 28 d6 64 3c 9f e0 08 be 67 55 eb bd
       -0.017947458 0.013967074 -0.13366936 -0.114908986
0000c0 0d 0b b8 3e 7a 35 8c 3e 07 80 35 3c 21 da e3 3d
       0.3594593 0.2738455 0.011077887 0.11125589
0000d0 7e fa db 3e c2 e3 69 3e fb 28 70 bc a4 c2 04 3e
       0.42964548 0.22840789 -0.014658208 0.12964875
0000e0 89 d2 b4 bb 55 8b f0 3d c9 33 83 3e 78 45 eb 3d
       -0.005518262 0.117453255 0.25625446 0.114878595
0000f0 57 b8 99 be 73 57 6e be dc d2 81 3d 3b 09 3e bc
       -0.30023453 -0.23275547 0.06339046 -0.01159888
000100 ca 76 61 3c f5 ee 01 3d 66 51 20 bd 6c ca 93 bd
       0.013761232 0.031722028 -0.039140128 -0.07216343
000110 41 1f 1c 3d 03 da 29 be 68 05 41 bc 9a 15 23 be
       0.038115744 -0.16587071 -0.011781074 -0.15926209
000120 0f 8a 8b bd 16 cc 6d 3d 9e 2d 8b 3d 92 d2 7d bd
       -0.06813442 0.05805596 0.0679581 -0.061968394
000130 33 9c 2d bd 18 f9 e5 3d 17 52 a2 3d 04 8e 27 3e
       -0.04238529 0.112291515 0.07925814 0.16362768
000140 87 8a e6 3c 01 89 9e 3d 2f 8f ec 3d 50 65 59 3d
       0.028142227 0.07740975 0.115507476 0.053075135
000150 45 74 f1 bd e1 ee f6 bc e5 29 0f 3c ab c7 10 be
       -0.11789755 -0.030143203 0.008738016 -0.14138667
000160 5f eb 63 be 55 58 e8 bd ec a6 9d 3d bb 3a 9c 3d
       -0.22257756 -0.11344973 0.076978534 0.076283894
000170 67 14 da bd b7 6f 9c bd 1a f6 f4 3d ca 93 c2 3c
       -0.10648423 -0.076384954 0.11961003 0.023752112
000180 62 38 58 be d5 6b 2c be 9d cd fd bd 51 d3 4e 3d
       -0.21115258 -0.1683801 -0.12392733 0.050494496
000190 7a 6c 12 be ef 3f 93 bd 79 5f 3d bd ed 93 d8 bd
       -0.14299193 -0.07189929 -0.046233628 -0.105750896
0001a0 d6 79 d6 bd 22 a2 41 b9 bd ff 65 be 26 ee dd bc
       -0.10472457 -0.00018466313 -0.22460838 -0.027091097
0001b0 e4 ee 3d bc 98 6a 62 bd 05 ad d3 bc f8 36 a6 bb
       -0.0115926005 -0.055277437 -0.025839338 -0.0050724708
0001c0 6b e2 57 3e f8 de c0 3d 0c a0 34 be 35 bc f0 bd
       0.21082465 0.09417528 -0.17639178 -0.11754648
0001d0 7b e8 9e 3d 3c 01 33 3c ae 92 fb 3c f1 4b 24 3d
       0.07759186 0.010925587 0.03070959 0.040111486
0001e0 a5 d8 65 3d c8 f7 99 bb e6 1b bf 3c 91 b5 25 3d
       0.05611481 -0.0046987273 0.023328733 0.04045636
0001f0 20 6d 50 bc 41 7b 00 3d ab 20 b6 3c 53 ac 9c 3c
       -0.01272133 0.031367544 0.022232374 0.01912514
000200 20 22 86 3d 16 e6 26 3d e3 fe 3b bd 20 b4 3e bd
       0.065494776 0.04074677 -0.045897376 -0.0465585
000210 0d 3e be 3d 5f 28 bf 3b a3 e0 38 3d 26 fa 83 3c
       0.09289179 0.00583367 0.045136105 0.016110491
000220 93 06 9f bc 9c bc 08 be e9 9b d6 3c fd c6 18 bd
       -0.019412315 -0.13353199 0.02619739 -0.037299145
000230 99 cf 3e 3d 64 5e 6d 3c 1d e4 8c bd 06 ac 91 3d
       0.0465847 0.0144878365 -0.06879447 0.07112889
000240 81 75 ab 3d 65 68 0e 3c 8c 70 cb bc e3 93 2d 3c
       0.083720215 0.008691882 -0.02483394 0.010594341
000250 c1 9f 0f 3e 0f 31 45 3d e4 2d 28 be 7f bf 64 be
       0.14025785 0.04814249 -0.16423756 -0.22338675
000260 9d ca db bc 32 b6 4f 3d ec 98 34 bd ef de 10 3d
       -0.026830012 0.050710864 -0.04409115 0.035368856
000270 24 10 9c 3d 0c 3d 61 bd 8c 53 2b be 81 bb bb bd
       0.07620266 -0.05498986 -0.1673109 -0.09166623
000280 14 cb 88 3c 1a 79 b8 bd 16 fc 9a bd e7 78 50 3c
       0.016698398 -0.09007473 -0.07567613 0.012724138
000290 53 85 40 3c 83 1a 16 bd 20 8e f9 bd 0a f5 a8 3d
       0.011750537 -0.036646377 -0.12185311 0.082498625
0002a0 a1 5e 8b 3d 26 82 15 3e 35 c0 a2 3d b1 7a f0 3c
       0.068051584 0.14600429 0.07946817 0.029355379
0002b0 3f d1 66 bd 65 33 bf bc 43 42 f0 bd b0 45 43 be
       -0.056351896 -0.023339937 -0.117313884 -0.19069552
0002c0 c3 a9 0f bd ea 46 d3 bd 96 e9 75 be 54 15 2a be
       -0.035074007 -0.1031626 -0.24014887 -0.16609699
0002d0 b4 6a 80 3c 72 ab ab bc 9d 3b 19 be 6e 1e 36 3e
       0.01567588 -0.020955775 -0.14964147 0.17785046
0002e0 65 b9 85 3d 8d 57 57 bd 27 fb c4 3c 09 92 32 3e
       0.06529502 -0.05257373 0.02404554 0.1743852
0002f0 9a fe e5 3d 7c e2 cd 3c fb 05 c1 3d 51 8e af 3d
       0.11230202 0.02513241 0.09424969 0.085720666
000300 be 53 91 bb f1 5d bd ba e2 f1 78 3d 41 49 45 3e
       -0.0044350317 -0.0014447552 0.060777552 0.19266225
000310 cf d5 0a 3e a1 6b b4 3d c2 9c c8 bc 78 b9 39 bd
       0.13558124 0.08809591 -0.02448881 -0.045342892
000320 db b9 b8 bd e4 c4 1d 3e a0 a7 f1 3d 58 c4 f1 bd
       -0.09019824 0.15407139 0.1179955 -0.11805028
000330 6e 62 fb bd dd 7a 5b bc f9 ec b9 3d 4e 42 9c 3d
       -0.12274633 -0.013395992 0.09078402 0.07629834
000340 f3 60 9b 3c e1 61 f7 3c cf 32 d3 3c 79 b4 cf 3d
       0.018967127 0.03019804 0.025781063 0.10141844
000350 e1 de cb 3c 04 55 26 be 37 5d 13 be 6d 2b 92 bd
       0.02488655 -0.16243368 -0.14391027 -0.07137189
000360 7e 5d af bd 98 cd 73 bd e0 91 12 be b2 7c f7 3d
       -0.08562754 -0.05952224 -0.1431346 0.120843306
000370 95 ad b8 3e 64 2c 20 3e 41 6f 4d be c1 78 88 bc
       0.36069933 0.15641934 -0.20061971 -0.016659142
000380 2a 0e b2 3d bc 0a a8 bd bc 85 1b be c6 77 fe bc
       0.08694108 -0.082051724 -0.15187734 -0.031062972
000390 e9 a8 3e 3d 7f 98 23 3d cd b2 9e bd 6c 6d 5a bd
       0.046547804 0.039940353 -0.07748947 -0.05332701
0003a0 4c b0 39 3d 14 5b 9b 3c 38 ee d0 bd 55 47 0e be
       0.045334145 0.018964328 -0.102016866 -0.13894399
0003b0 3a 77 4e be cf 8f ad bc b8 62 f0 bd fa 2f f1 bd
       -0.20162669 -0.021186737 -0.11737579 -0.11776729
0003c0 96 1c c0 3d 2e 96 f9 3d bf bd 2b 3d e3 94 91 3d
       0.09380452 0.121868476 0.041929003 0.07108476
0003d0 b3 26 4b 3e 8b 39 08 3d 63 82 a5 bd 11 3e 26 3b
       0.19838981 0.033258002 -0.0808151 0.0025366584
0003e0 92 d6 6b bd c9 34 43 be 41 b7 1b be 49 c1 da bd
       -0.057577677 -0.19063105 -0.15206625 -0.106813975
0003f0 41 ae 88 3c 97 31 7d bc ac 9f f2 bd 36 82 17 be
       0.016684653 -0.015453718 -0.11846861 -0.14795765

conv2.bias f4 [64]
000000 0e e4 3b bd ef b2 ea bb 0f 23 66 bd 31 ef 0c be
       -0.045871787 -0.007162444 -0.05618578 -0.1376312
000010 5e 3d 8d bd 5e a4 4b 3b ad d7 34 bd 7e a5 6a bc
       -0.068964705 0.0031073312 -0.044150997 -0.014321683
000020 51 8d 80 bd 5c 53 00 3d 49 59 95 bd 74 2f f8 bc
       -0.06276954 0.031329498 -0.072924204 -0.030296065
000030 41 f0 3d bd 74 78 15 bd 0a ce b3 bd 8f 3b 13 bd
       -0.046371702 -0.036491826 -0.08779533 -0.03594547
000040 b6 59 f4 bc f0 7d 2d bd 29 49 da bc 2e ba 16 be
       -0.029827934 -0.04235643 -0.026646214 -0.1471946
000050 cf c3 5b bd da 15 3e bd d7 eb 1b bd 64 49 4f 3d
       -0.053653535 -0.046407558 -0.03806671 0.0506071
000060 fa e0 fa 3c 76 f1 25 3a 9c 82 86 bd fb 6c 6a bd
       0.030624855 0.0006330231 -0.065678805 -0.057232838
000070 c9 2d 45 bd 36 bd 27 3b 89 0b 53 bd d3 e5 8f bd
       -0.048139367 0.0025594956 -0.051524673 -0.07026257
000080 88 e5 9e bc cc 06 a1 bd c5 93 13 3c 99 aa 45 bd
       -0.019396558 -0.078626245 0.009007399 -0.048258398
000090 f1 9d 9c bd 5c 8c b3 bd 47 2b 3c 3d 86 8f fe bd
       -0.076473124 -0.08767006 0.04593971 -0.12429719
0000a0 55 1a 68 bd 5a 22 2a 3b bf d1 c8 3c db a8 55 bd
       -0.056665737 0.0025960417 0.024514077 -0.052162986
0000b0 44 5f 89 3d 75 50 c1 bd 23 43 9b bd 63 d9 6f 3c
       0.067076236 -0.09439174 -0.07581165 0.014639231
0000c0 3c 6e 9a 3c ee ef d8 bd b4 68 46 bd d6 59 4a bd
       0.018851392 -0.10592638 -0.048439696 -0.04940208
0000d0 bf 58 9f bd 16 a6 81 3c ba fc 89 bd dd 4a 27 bd
       -0.07780599 0.015826266 -0.06737657 -0.04084288
0000e0 6d 02 5a bc 28 22 b5 bc 1e d9 31 3c e0 14 0b be
       -0.013306242 -0.022111014 0.010854987 -0.13582182
0000f0 b3 99 10 3c e4 27 5e 3c 4a 89 be 3b 69 0a 97 bb
       0.008825707 0.013559315 0.005814706 -0.0046093953

fc1.weight f4 [128, 1600]
000000 e7 0f bc 3c ed 81 63 3b ae 5d 81 bd 46 41 17 bd
       0.022956802 0.0034714893 -0.06316696 -0.036927484
000010 ff ef 86 bd 00 3d 08 be b0 b5 33 be 0d 4b ac bd
       -0.06588744 -0.1330452 -0.17549777 -0.08412752
000020 77 37 c8 bc df cf c8 bd fa 79 a5 bc 69 7b c6 bd
       -0.02444051 -0.09805273 -0.020199765 -0.09691507
000030 c6 7c 81 3d 83 91 0d 3e 55 f5 01 3e 7e 71 5a 3d
       0.06322627 0.1382504 0.12691243 0.05333089
000040 73 67 44 bd de ee bd 3c f0 c6 59 3e 4f 06 07 bd
       -0.04795022 0.02318519 0.21267295 -0.032965
000050 15 b0 54 bd 1e 83 06 3c b7 b2 af bd 26 2d 49 3d
       -0.051925737 0.008209972 -0.08579009 0.049115323
000060 30 bf ea 3d ca 7e bd 3d 3a d9 9f 3d 9d 17 0a 3d
       0.11462247 0.09252699 0.078051046 0.033713926
000070 a1 24 6d bc a7 1a ad 3c 5e 89 bf bd 68 7e 23 be
       -0.014474065 0.021130873 -0.093523726 -0.15966189
000080 76 a0 e8 bd f6 46 29 3c 69 97 04 be f3 da a6 bd
       -0.113587305 0.01033186 -0.12948383 -0.0814723
000090 b4 3c 2c be 2b 7e 76 3c f0 a1 d5 3d 83 04 0a 3e
       -0.16820031 0.015044729 0.10431278 0.13478284
0000a0 e3 3b d9 bb 58 e2 83 bd 28 58 bd 3d 8a b6 0b 3e
       -0.0066294535 -0.06439656 0.0924533 0.13643852
0000b0 c0 00 00 3e d9 bb 5a 3d 44 32 57 3d 31 c8 1f 3d
       0.12500286 0.0534018 0.05253817 0.039009277
0000c0 0e 71 58 3d b3 49 90 3d bf 88 91 bd c8 c7 9a bd
       0.052842192 0.07045307 -0.0710616 -0.075576365
0000d0 13 95 27 3d ab 37 3d bd 10 ef 18 bd 4b 48 bf bd
       0.040913653 -0.046195667 -0.037337363 -0.09339961
0000e0 1b 36 be bd b8 2d 5e 3d 34 c8 16 be ca 6d 91 3a
       -0.092876635 0.05424282 -0.14724809 0.0011095342
0000f0 16 51 b1 3b 40 79 9c 3c cc fa 76 bc e6 01 de bc
       0.0054112775 0.019100785 -0.015074443 -0.027100515
000100 31 29 02 3e 30 db ea 3d f6 a1 89 bc 50 b8 89 bc
       0.12711026 0.11467588 -0.016800862 -0.01681152
000110 be a8 7f 3d a3 04 22 3e 90 a9 e0 3c 86 5c 1d be
       0.062416784 0.15822081 0.027424604 -0.15367326
000120 f4 1a 09 be a8 6c 8d 3d 4f 9c e3 bd 83 a5 63 bd
       -0.13389188 0.0690549 -0.11113798 -0.055577766
000130 92 ef b7 3d b9 72 5c 3e 3f 3f 7e 3e 05 bd 74 3e
       0.08981241 0.21528138 0.24828814 0.2390023
000140 15 c1 ac bd 6a f5 b4 3c 66 b2 b9 3d 56 10 48 3e
       -0.08435265 0.022089679 0.0906723 0.19537482
000150 57 98 90 3d e6 89 8c bd 7b 9a ce bd 7d 12 a9 bd
       0.070603065 -0.068622395 -0.100880586 -0.082554795
000160 c8 1f b4 3c ee 9f 7d 3d 33 b7 ff 3b bd 7c b0 bd
       0.02198781 0.0619201 0.0078038215 -0.08617542
000170 99 1f 8d 3c e7 f3 93 3d 33 ca 1b 3e 56 89 35 3c
       0.017226981 0.07224255 0.15213852 0.011080107
000180 f1 8d ae bd ba 99 56 bd cd bd 41 bd 00 b8 16 3e
       -0.08523167 -0.0523927 -0.04730015 0.14718628
000190 fd 87 75 bd 2e 9f 1f bd 71 40 0c 3d 6f 39 66 bd
       -0.05994414 -0.038970165 0.034241144 -0.056207117
0001a0 0d 76 07 be 37 f0 27 bd a4 bb ce 3c 8d d9 e2 3d
       -0.13228627 -0.04100057 0.025235958 0.11076651
0001b0 bc 65 15 bd 57 1c c1 bd 4b 18 f0 3c b6 6c 86 3d
       -0.036473975 -0.094292335 0.029308459 0.06563704
0001c0 be f1 e0 bb 1e 70 80 bd a4 d4 c7 3c 1d 77 df 3d
       -0.0068647554 -0.06271385 0.024393387 0.10911391
0001d0 34 80 56 bd 7d e0 88 3d 09 57 d8 bc 10 c2 93 3e
       -0.052368358 0.06683443 -0.02640869 0.28858995
0001e0 28 91 48 bd 4e 69 18 be 8e da 84 3c 68 3b 58 bd
       -0.048966557 -0.1488392 0.016217496 -0.05279103
0001f0 cc 62 d4 3c 58 e3 c2 3c d4 16 9b 3c c5 5e f1 3a
       0.025926016 0.023790047 0.018931784 0.0018415084
000200 21 4d 88 3c b7 80 c0 bc 23 11 ea 3c 0f a0 91 ba
       0.01663834 -0.023498876 0.028572625 -0.0011110323
000210 29 50 e1 3b 40 4e ce 3b 25 cc ab bb 4d bb 1b bd
       0.006876011 0.006295949 -0.005242842 -0.03802042
000220 f8 90 1b bd 2a 27 db bb 59 b3 23 bc 40 93 a8 3c
       -0.03798005 -0.0066880183 -0.00999149 0.020578027
000230 06 37 52 bb 94 4e 8a bb be f0 7f bc 23 e6 8d bc
       -0.0032076254 -0.004220793 -0.015621362 -0.017321652
000240 32 74 04 bd 77 10 13 3d 51 4f 2c 3c b4 5d fe bc
       -0.032337375 0.035904374 0.010516957 -0.03105054
000250 86 28 45 3c c0 9d 3f 3b 99 90 2e 3c 6b 34 f8 bc
       0.012033587 0.0029238313 0.010654592 -0.030298432
000260 b9 5d 44 3c 6f da 15 be a8 3c db bd 9b a4 7a bc
       0.011985236 -0.14634107 -0.10704929 -0.015298034
000270 0f 25 1e bd 55 93 34 bd cc 60 14 be f3 fc 72 be
       -0.03860956 -0.04408582 -0.1449005 -0.23729305
000280 33 cf f5 bd 24 f6 08 be 2e 7e 35 bd 90 4b 86 bc
       -0.12002411 -0.13375145 -0.044309787 -0.016393453
000290 ae b2 7f bd 2a 0f 0f 3e ed a1 af 3d af f3 4f bd
       -0.06242626 0.13970628 0.08575807 -0.050769504
0002a0 94 d0 0f bd bf 62 3b 3d 8c 8e ed 3d b7 17 cc 3d
       -0.035111025 0.04574847 0.11599454 0.09965461
0002b0 0b 0d 3b bc 95 29 9d bb ed 1b a9 3c 75 1b 0d bd
       -0.011416684 -0.0047962167 0.020643199 -0.034450013
0002c0 55 bd a0 bd 5c 0a d5 bb f8 53 82 bd 0e 70 8b be
       -0.07848612 -0.006501479 -0.06363672 -0.27233928
0002d0 ca 68 01 3e 4b 6c 8d 3d 5e 58 93 bd ac 6d 30 bd
       0.1263763 0.06905421 -0.07194589 -0.04307334
0002e0 6f 98 f7 3c 48 35 35 3d f6 27 f3 3c 27 4f aa 3c
       0.030224053 0.044240266 0.02968214 0.020789696
0002f0 7a e5 7d bb 3c dd 3a 3b a2 8e f6 3d 15 b3 c2 3c
       -0.0038741515 0.0028513214 0.12038924 0.023767034
000300 5e 5a 18 3c 1d 0f 09 3e 37 5b c5 bc 66 fa 8c bb
       0.009298889 0.13384672 -0.024091346 -0.0043023108
000310 99 51 53 3d c1 71 1b 3d 83 ed b2 bc 1a 29 2d bd
       0.05159149 0.03795028 -0.02184177 -0.042275526
000320 08 9b f3 3d 57 ae b9 3d 13 c7 85 3e 93 bc 80 3d
       0.11894804 0.09066456 0.26128444 0.06285968
000330 d2 a5 08 3e 59 30 cb 3d f8 0f d6 bd 17 07 ae bb
       0.13344505 0.09921331 -0.104522645 -0.005310904
000340 b7 4e fe 3c f2 3e 9c 3d 4d f3 38 3d fc 57 2a be
       0.031043394 0.07629193 0.045153905 -0.16635126
000350 24 5d 92 bd 0f 41 1f bd 25 0e 41 3d de 3f f2 3d
       -0.071466714 -0.038880404 0.04713263 0.11828588
000360 f2 d7 f0 3c e2 b3 26 be 76 e5 ee 3c 3a 80 4c 3d
       0.029399846 -0.16279557 0.02916215 0.049926974
000370 62 1a 3c 3e 4e ae 1a 3d 56 4a c1 be cb d2 3b bc
       0.18369439 0.037763886 -0.37752026 -0.011463831
000380 45 c0 bd 3d f5 fa 47 bd cf 48 61 bd e4 ec 90 bd
       0.09265188 -0.048823316 -0.055001076 -0.07076433
000390 dc 43 b0 bd 11 d3 25 be 6f b0 0d bc e5 69 0a be
       -0.08606693 -0.16193797 -0.008648022 -0.13516958
0003a0 b6 ee 56 bd 44 74 b0 3d d9 a1 8c bd 93 a3 86 3d
       -0.052473746 0.08615926 -0.068668075 0.06574168
0003b0 f4 e9 b9 bc 37 32 17 3e fb 81 6d 3e 3a 99 2c 3e
       -0.022694565 0.14765249 0.23194115 0.16855326
0003c0 5a c1 38 3e 15 55 b4 3d 7c 93 ec 3d c7 7c da 3d
       0.18042508 0.088052906 0.11551568 0.10668331
0003d0 f6 44 67 3c 9f 75 bc 3d 3b 65 d4 bc 2d af 97 bd
       0.014115563 0.09202122 -0.025927177 -0.07406459
0003e0 fe 93 03 be c0 bc cb 3c ef 72 0e 3b 69 8f da bd
       -0.12849423 0.024870276 0.0021735986 -0.106718846
0003f0 f9 bf 79 bd e6 67 db 3c 55 9c 19 bc b0 8b 4e be
       -0.060974095 0.026782941 -0.009375651 -0.20170474

fc1.bias f4 [128]
000000 9b 86 5e 3b cd 48 0f 3d 29 43 87 3d 60 e4 18 bd
       0.0033954743 0.034981538 0.06604607 -0.03732717
000010 27 30 3e 3c 1c 22 16 bd 4e 1c ce bc 9f c9 17 bd
       0.01160816 -0.036653623 -0.025159981 -0.037057515
000020 31 95 9c 3c ca 38 5d 3d 16 b4 54 bd 85 08 a8 3c
       0.019114109 0.054009236 -0.051929556 0.020511875
000030 3f 57 95 bc 7f 93 2b 3c 6d de 7d ba 1d e7 b9 3b
       -0.018230079 0.0104721775 -0.0009684328 0.005673303
000040 93 57 98 3c 0e da 8c bb de 51 3a bd a7 38 bf bc
       0.018596446 -0.004298455 -0.04548823 -0.023342444
000050 45 21 b3 3c 0a 25 67 bd a7 d5 5a bc e4 87 8b bd
       0.02186645 -0.056431808 -0.013356603 -0.068130285
000060 dc 47 58 3d f3 24 4f bc 1c 8e ee 3c 63 fe 7e ba
       0.052802905 -0.012643087 0.029120497 -0.00097272376
000070 61 cc 02 bc 81 19 3e bc 9f 92 2f ba d2 64 49 3d
       -0.007983298 -0.01160276 -0.00066975685 0.049168415
000080 74 ff 41 3c 9b cd 27 bd dc 69 7e bc ca c0 39 bd
       0.01184069 -0.040967565 -0.0155281685 -0.045349874
000090 c2 af 0b bd 26 89 7a bd 37 dc a1 bb 64 13 a6 3b
       -0.034103163 -0.06116595 -0.0049395817 0.0050682295
0000a0 54 19 2d 3d a9 5f 77 3c ce df 6d 3c f0 61 27 bc
       0.042260483 0.015098491 0.014518691 -0.010216221
0000b0 12 41 a4 bc 4b 91 9a bc a5 bd da 3b 50 6b 78 bc
       -0.02005056 -0.01886811 0.0066754394 -0.015162304
0000c0 07 93 15 bd 79 12 68 3d ed da 90 3c 9f 36 95 bb
       -0.03651717 0.056658242 0.017682517 -0.0045536305
0000d0 f0 06 8d bb d2 64 b4 bc 0e fa 8b bd 0c ed 44 3d
       -0.0043038055 -0.022020731 -0.068348035 0.048077628
0000e0 3a b4 de 3c 43 83 fc bc 92 d7 c0 bc 3d 46 b1 bc
       0.027185548 -0.03082431 -0.023540292 -0.021639938
0000f0 db de d0 39 66 e7 b0 3a 11 71 ed bc 3c 9b 01 3c
       0.00039838892 0.0013496696 -0.028984578 0.007910546
000100 14 3e cf 39 01 ba 3b bc 44 87 bc bc a5 96 79 bc
       0.00039528369 -0.011457921 -0.023013718 -0.01523367
000110 34 b2 1d bd 06 0b 05 bd a9 1b 5a 3d c4 96 a9 3a
       -0.038500026 -0.032481216 0.053249035 0.0012938608
000120 21 73 2d bb 18 37 98 3c 0d 2c ff bc 0f f0 ac bb
       -0.0026466327 0.018580958 -0.031148935 -0.0052776407
000130 4f 71 06 bd 1c 01 27 3d f0 9c 9e bc 86 b9 d6 bc
       -0.032822903 0.040772542 -0.019361943 -0.026211511
000140 4e 5f 99 3b 10 f7 98 3a c3 4a 37 3d d1 d0 3e 3c
       0.0046805507 0.001167031 0.044749033 0.011646465
000150 15 65 e8 3c 52 e7 fb bc 52 3d a7 3c 0e 6c 40 3c
       0.028368512 -0.03074995 0.020414982 0.011744512
000160 b9 61 2b bd c1 d3 2f bd 86 eb e9 3c 04 14 ca bc
       -0.041841242 -0.042926554 0.02855469 -0.024667747
000170 8b 3f 5a 3c 21 9f 3e bd b2 6c 95 bc 4a b1 19 bd
       0.013320814 -0.046538476 -0.018240307 -0.03752259
000180 67 6c f9 bb 7b f6 45 bb 88 9e 48 bc 13 36 a5 bc
       -0.0076117995 -0.0030206728 -0.012244828 -0.020167386
000190 8a 4e f7 bb 58 1b 90 3d 96 46 d1 bc b6 55 67 3d
       -0.0075472044 0.070364654 -0.025546353 0.056478225
0001a0 67 10 85 bc 90 89 c1 3c e8 94 4b 3d e3 64 26 bc
       -0.016243173 0.023625165 0.049702555 -0.010155889
0001b0 05 e8 57 3d 59 cd 75 bd 6b ec c3 3c 5f 90 79 bd
       0.052711505 -0.060010288 0.023916444 -0.0609287
0001c0 c9 f6 87 bc d0 05 02 3c b9 89 7f bc f7 ac d5 3c
       -0.016597169 0.007935956 -0.0155968005 0.026083453
0001d0 38 57 09 3c 15 59 75 bc e0 e1 9b bb 4e fb 77 3d
       0.008382611 -0.014974852 -0.004757151 0.060542397
0001e0 49 31 39 bc 16 8f 33 3d 22 db 28 bc 45 c6 5c bd
       -0.011303254 0.04383763 -0.010306152 -0.053900022
0001f0 bc 68 d6 bc 40 a7 22 3d 8c d4 02 3a 99 28 8f bc
       -0.026172988 0.039710283 0.00049907784 -0.017475413

fc2.weight f4 [10, 128]
000000 39 23 ba 3c 2b a0 0a bd 35 d4 c7 3d 6c 38 9b 3d
       0.022721874 -0.033844154 0.09757272 0.07579121
000010 1d 91 18 3d 09 6e aa be 0e 47 c8 bb 61 ed 5d be
       0.037247766 -0.33287075 -0.006111986 -0.21672584
000020 8a ed 17 bc 66 8b 19 3d 4a 52 99 3c 0a b4 f1 3c
       -0.009272942 0.037486456 0.018715996 0.029504795
000030 15 35 91 bd 75 eb 0f 3c 45 c9 73 3d 4e b6 a0 3d
       -0.07090203 0.008784165 0.059518117 0.07847272
000040 db c9 2b 3e df ec 72 3d be 65 5d be 02 f0 1a be
       0.1677622 0.05930793 -0.21620843 -0.15130618
000050 4c 92 ff 3d 7e 8b 4b 3c 8a d2 89 3d e1 7d b1 bc
       0.12479076 0.012423394 0.0672961 -0.021666469
000060 23 fa 00 bd a2 d0 30 be 8a 21 d0 3d b5 49 5f bc
       -0.03148855 -0.17267087 0.10162647 -0.013628413
000070 b6 dd 1f 3e 72 5b 36 3d aa 1f 35 3d bf 78 14 3d
       0.1561192 0.044520803 0.04421965 0.036247965
000080 a8 cb 05 be c6 ca a0 3d e7 02 cd bc a0 31 9a 3c
       -0.1306597 0.07851176 -0.025025798 0.018822491
000090 49 e9 94 bc 0d ee 7c bd 6c 06 83 3d b6 32 5a be
       -0.018177645 -0.06175046 0.06397709 -0.21308407
0000a0 5e 85 7c 3e 84 e9 09 3e ca 7c 83 be 4b 8d 34 bd
       0.2466025 0.13467985 -0.25681144 -0.04408006
0000b0 d8 e1 29 bd ff 9e 3e be 00 a8 65 3d 6c 6a 2b 3e
       -0.041475147 -0.1861534 0.05606842 0.16739815
0000c0 08 52 dc 3c cb 3c 9f be 21 46 1c 3c a6 81 4f 3d
       0.026894584 -0.3110107 0.009538204 0.05066075
0000d0 8e 6e 45 3d 51 df 5b be 0e 8e 9c bc 39 43 76 bd
       0.048201136 -0.21471907 -0.019110706 -0.060122702
0000e0 63 b2 05 3e bb 7f 1a be cc 15 a5 3d 8a d4 24 bd
       0.1305633 -0.15087788 0.08060798 -0.040241756
0000f0 f7 75 81 3c 13 57 fc 3d 17 62 e3 3c 97 b0 a7 bc
       0.01580332 0.123212956 0.027756734 -0.020469947
000100 73 d2 09 3d 65 1e 04 3d b4 8a 53 bc 14 ce 37 3d
       0.033647966 0.03225555 -0.012911487 0.044874266
000110 a6 d4 84 3c 62 81 55 3d 48 a7 02 3e da 9e fc bb
       0.01621468 0.052125342 0.12759125 -0.0077093663
000120 8d a9 71 3d f0 22 11 be 1f b6 a2 be 8c 03 99 3d
       0.058999587 -0.14173484 -0.31779572 0.0747138
000130 71 65 81 39 c4 f7 ec 3b 71 91 f3 bc 58 c0 8d 3d
       0.00024680377 0.0072316844 -0.029732438 0.06921452
000140 13 21 a0 bb 5f 96 48 3c f3 92 e5 bc b6 16 56 be
       -0.0048867553 0.0122428825 -0.028024172 -0.20907101
000150 61 4f 0e 3d 84 d4 42 3d 9a 02 46 be 4d 3c c1 3d
       0.03474367 0.047565952 -0.1933693 0.094353296
000160 ec 25 89 bc d0 12 ff bd f9 77 d9 3d 57 9f 6e 3c
       -0.016741715 -0.1245476 0.10618586 0.014564357
000170 10 42 3a 3e 11 b4 e3 bc b7 6c 27 bd d8 fb 15 bc
       0.18189263 -0.027795823 -0.040875163 -0.0091542825
000180 f2 73 75 bd fa b0 11 bd 5e b9 1d 3d 99 0a 8f 3d
       -0.059925027 -0.03556917 0.038506858 0.06984443
000190 2a 43 aa bd 87 3e f4 3c fe a2 4f be 6a bc 0f bd
       -0.08313592 0.029814972 -0.2027702 -0.035091795
0001a0 c8 20 1b 3d f9 94 df bc 15 6f 82 bd 76 09 41 be
       0.03787306 -0.027292715 -0.063688435 -0.18851265
0001b0 38 82 1b 3b 0d 4a 72 bd a1 da 0b be 33 7b a7 bd
       0.002372874 -0.05915265 -0.13657619 -0.08177795
0001c0 4d 13 6e bd 44 89 5f 3d c9 05 00 3d 57 6e b4 be
       -0.058123875 0.054574266 0.031255517 -0.35240433
0001d0 4c 6e c7 bd 86 02 b8 bd 9e 9b a4 3d b8 2c bf 3c
       -0.09737834 -0.08984856 0.08037494 0.023336753
0001e0 71 87 07 3d 76 2a b1 bd 67 ce 1e be 95 ec 64 3d
       0.03308815 -0.08650677 -0.15508424 0.055889685
0001f0 99 c6 61 bd e9 5b 07 3e eb cc 66 3d 43 bf 6f bc
       -0.055121038 0.13218655 0.05634777 -0.014633003
000200 54 fc 67 bd d5 5e c4 3d a6 70 7e 3e 44 c3 90 be
       -0.056637123 0.095884 0.2484766 -0.28273976
000210 63 1f af bd 1b 21 f5 bd ae b9 1b 3a 5e 0b 88 be
       -0.085509084 -0.11969205 0.0005940449 -0.26571172
000220 e9 e8 3e be 77 05 83 bd 55 fa 17 be 82 cf cb bb
       -0.18643536 -0.06397527 -0.14841588 -0.006219805
000230 fd 1d d7 bd 59 74 43 3c 09 bd 3c 3c 98 91 e1 3c
       -0.10503767 0.011929595 0.011519679 0.027535245
000240 8e ba 20 bd 2c 1a 06 3d 17 0d 11 be 71 7b 4b be
       -0.039240412 0.032739803 -0.1416515 -0.19871308
000250 54 2c 39 be e3 86 3f bc 32 83 4a be 4e f7 81 3b
       -0.18083316 -0.011689874 -0.1977661 0.0039662486
000260 ea 41 4e 3d 74 d3 83 3d df 4a 1a be b5 84 84 bd
       0.05035583 0.06436816 -0.15067624 -0.06470624
000270 fa 55 38 be b0 dd 2d 3d 94 ac 7f bb 60 c2 73 bd
       -0.18001547 0.042447746 -0.0039012777 -0.059511542
000280 a1 d6 28 3e d1 2d 9a 3d 33 02 b4 bd 21 77 0d be
       0.16488124 0.0752827 -0.08789482 -0.13814975
000290 9a 5e 86 bd 86 a1 02 be 61 54 92 be c4 b7 33 3d
       -0.065610126 -0.12756929 -0.2858 0.043876424
0002a0 a2 f3 04 bb e9 78 09 3c 89 f4 9b 3d 94 c7 8e bd
       -0.0020286818 0.008390644 0.07615001 -0.0697166
0002b0 61 6f 65 3e 54 a6 19 3c 8e fd 6f 3d 73 45 21 3e
       0.22405769 0.009378035 0.058591418 0.15749149
0002c0 11 08 76 bc 13 b3 55 3e e1 1a 39 bd c6 a0 2b 3b
       -0.015016572 0.20869093 -0.04519165 0.0026188358
0002d0 d2 be f7 bd ab 3d 38 bd 04 43 dc bd 85 42 60 3d
       -0.12096943 -0.044980686 -0.1075497 0.054750938
0002e0 65 b2 4f be 4f 7b cf bc d5 d2 d2 3c a0 4f a8 bd
       -0.20282896 -0.025327353 0.025735298 -0.08218312
0002f0 2f 43 ac bc 87 3b 01 3e 5e 3c e3 3c 8c 57 3c be
       -0.02102813 0.12620364 0.027738746 -0.18392771
000300 72 a4 35 bd 6a 53 9d 3c f5 81 ea bc 6b fd 65 be
       -0.04434628 0.019204814 -0.028626421 -0.22459953
000310 9b 25 09 be cb 89 52 bd 53 9c 53 3e 77 8a 86 bd
       -0.13393252 -0.05140094 0.20665102 -0.06569379
000320 2e 52 51 3d fe 8a 11 3e 6d 31 90 3c c6 69 23 3d
       0.051103763 0.14213178 0.017601693 0.039895795
000330 48 31 1b bd ce e1 9e 3d c9 f1 c9 3b 3d 32 8a bd
       -0.037888795 0.077579126 0.0061628562 -0.067478634
000340 75 3e b0 bd 0d f8 ba bd 2f d0 f0 bc ef fd bd bd
       -0.08605663 -0.09129343 -0.029396145 -0.092769496
000350 9a 7b e8 bd da fc e4 bc 67 ea 68 3d 6e 6f c3 3d
       -0.113517 -0.0279526 0.05686417 0.09542738
000360 a2 d3 00 bd 06 ad e8 bc 2a 24 00 be 63 5b 31 be
       -0.03145183 -0.028402817 -0.12513795 -0.17320018
000370 fa 1c 31 be 92 8e 3b bd b7 37 17 be b6 89 0b be
       -0.1729621 -0.045790263 -0.14767347 -0.13626751
000380 5b f1 9e 3d 2d 3a e0 3c 56 9f ed 3c 96 56 a5 bd
       0.07760879 0.02737149 0.029006641 -0.080731556
000390 e7 f0 e5 bb 13 e1 15 3e 37 14 81 3e 3d 6e 8f 3d
       -0.007017243 0.1463664 0.25210735 0.07003448
0003a0 11 a6 35 bc a9 eb d7 bc 02 b2 5f 3d a8 bd 8d 3d
       -0.011086957 -0.026357489 0.05461312 0.0692094
0003b0 47 f4 75 3d 59 85 b3 3d 4c a9 35 3e 04 c5 54 be
       0.060047414 0.087656684 0.17740363 -0.2077828
0003c0 9b cb cf 3b ff f2 34 bd 5b 49 14 3d ee 25 eb 3d
       0.0063414103 -0.04417705 0.03620277 0.11481844
0003d0 47 7f aa bc 4d 90 46 bd 73 db 80 be 82 c4 93 3d
       -0.020812644 -0.04847746 -0.25167426 0.07215215
0003e0 b9 0b 69 3d 87 2b b3 3d 34 90 a8 3d 37 ad 30 3b
       0.056895945 0.087485366 0.082306296 0.0026958713
0003f0 fd 28 a7 bd 89 2a 8f 3d ad 95 14 3d 79 02 33 bd
       -0.08162115 0.06990535 0.036275554 -0.04370353

fc2.bias f4 [10]
000000 82 82 a9 bc 82 81 ba 3d f8 e8 d7 bc 09 d2 73 bd
       -0.020692114 0.09106733 -0.026356205 -0.059526477
000010 4e 43 85 bd ca cb d2 bd b9 6f 9c bc 1e 89 67 39
       -0.06506978 -0.10292776 -0.019096242 0.00022080957
000020 4a e9 04 3e a6 09 2d bd
       0.12979618 -0.04224553
